MARLMOT/trained_models/actor_1161.pth (torch, 54509 bytes, 8 tensors)

fc1.weight f4 [128, 18]
0	0x3d8c654a	0.06855257
1	0xbe0ce797	-0.1376022
2	0x3e4c8364	0.19971997
3	0xbe504355	-0.20338185
4	0x3e52ae8c	0.20574397
5	0x3e4271ec	0.1898877
6	0x3da361d7	0.07977646
7	0x3de872e7	0.11350041
8	0xbda19d64	-0.07891348
9	0x3e79f61a	0.24410287
10	0x3e0eb247	0.13935195
11	0xbcae8df2	-0.02130792
12	0x3e5f21d6	0.21790251
13	0x3e3080a1	0.17236568
14	0x3e1b6c7d	0.15178104
15	0xbe53901d	-0.20660444
16	0x3d54ac42	0.05192209
17	0x3e223fcc	0.15844649
18	0xbd77e4fa	-0.060521103
19	0xbdb94831	-0.090469725
20	0xbe21f112	-0.15814617
21	0xbdaddc1c	-0.08489248
22	0xbe4efdc3	-0.2021399
23	0x3df05451	0.11734832
24	0xbe0ab1ea	-0.13544431
25	0x3cc9006d	0.024536336
26	0xbe2d5091	-0.16925265
27	0xbdcc298a	-0.099688604
28	0xbe649e4b	-0.22326009
29	0xba8ae7d0	-0.001059765
30	0xbe0b549f	-0.13606499
31	0xbda5f5d2	-0.08103527
32	0xbe62289c	-0.22085804
33	0x3dc5a856	0.09651248
34	0x3e25916e	0.16168758
35	0xbd2aface	-0.041743092
36	0x3e3da807	0.18521129
37	0xbdcc745a	-0.0998313
38	0x3e2d4bca	0.16923442
39	0x3df709e5	0.12062434
40	0x3d5e670b	0.05429749
41	0x3dd37cf6	0.10326569
42	0x3dbf7c69	0.09349901
43	0x3cd39138	0.025826082
44	0x3da2aba4	0.07942894
45	0xbce9afbe	-0.028526183
46	0xbe30cc5c	-0.17265457
47	0x3e4bb119	0.19891776
48	0xbd4dff8d	-0.05029254
49	0x3c10df10	0.008842245
50	0x3e807179	0.25086573
51	0xbce13cae	-0.027494755
52	0x3dd006b1	0.10157526
53	0xbe3ef0ad	-0.18646498
54	0x3dbd47d9	0.092422195
55	0x3ddab4bc	0.106790036
56	0x3d29a5b3	0.04141779
57	0xbdd520ce	-0.104066476
58	0x3e01269f	0.12612389
59	0x3e1b5561	0.15169288
60	0x3e836ed8	0.25670505
61	0x3d66a99b	0.056314092
62	0x3e3ee2cc	0.18641204
63	0x3c3a2aba	0.011362726
64	0x3d22320c	0.03959851
65	0xbd8b4732	-0.06800689
66	0x3ded82b0	0.11597192
67	0xbe6f8ed4	-0.23394328
68	0x3d45cce5	0.048291106
69	0x3e3c7e68	0.18407595
70	0x3e716bd2	0.23576286
71	0x3e44ba14	0.19211608
72	0x3e4de50e	0.20106909
73	0x3e856d5a	0.2605999
74	0xbd0e400f	-0.03472906
75	0xbe3c110b	-0.18365876
76	0xbdab7959	-0.083727546
77	0xbd81c8c7	-0.06337123
78	0x3c4669bf	0.012110173
79	0x3e70925a	0.23493329
80	0x3d2ffdff	0.04296684
81	0xbe0e1846	-0.13876447
82	0x3e55ad5d	0.20866914
83	0x3e1fd519	0.15608634
84	0x3e13ebf0	0.14445472
85	0xbcba4aa0	-0.022740662
86	0x3de467aa	0.11152585
87	0xbce871cb	-0.028374573
88	0x3e8528c3	0.2600766
89	0xbce325b3	-0.027727937
90	0x3e18c910	0.1492045
91	0x3cac6c33	0.021047687
92	0x3e2a14be	0.16609475
93	0x3e284d28	0.16435683
94	0xbb956843	-0.004559548
95	0xbbb90bc6	-0.0056471555
96	0x3e8d0438	0.2754228
97	0x3d988135	0.07446519
98	0x3e255427	0.16145383
99	0xbc4a6451	-0.012353019
100	0xbc34b9d7	-0.011030636
101	0xbdf9b373	-0.1219243
102	0xbd662a80	-0.056192875
103	0x3dd35a5e	0.103199705
104	0x3e820fdb	0.25402722
105	0xbe124fa5	-0.14288194
106	0xbe1216a0	-0.14266443
107	0x3be45015	0.0069675543
108	0xbcd74b87	-0.026281131
109	0xbe6efdaf	-0.2333896
110	0x3e20fe4b	0.15722005
111	0x3dbcf873	0.092270754
112	0xbe07b48f	-0.13252471
113	0x3d2f2c14	0.042766646
114	0xbe45912c	-0.1929366
115	0xbdf830b5	-0.12118665
116	0x3e53667f	0.20644568
117	0xbdf6bdf7	-0.12047952
118	0x3e538bdb	0.2065882
119	0x3dff7c3a	0.12474866
120	0xbdd3c633	-0.10340538
121	0xbe18bb56	-0.14915213
122	0x3e233b4f	0.15940593
123	0xbdfe21b5	-0.12408773
124	0xbd176127	-0.036957886
125	0x3e4a0e2f	0.19731973
126	0xbde4a64b	-0.1116453
127	0x3d47bd47	0.048764493
128	0xbe0e1868	-0.13876498
129	0x3e64c7d4	0.22341853
130	0x3db07830	0.08616674
131	0xbc979b80	-0.018506765
132	0x3e4531bf	0.19257258
133	0xbe49ce9a	-0.19707718
134	0xbdd43336	-0.1036133
135	0xbdda854a	-0.10669954
136	0xbe23735a	-0.15961972
137	0x3dd44f8a	0.10366733
138	0x3e49c1e7	0.19702874
139	0xbb848de0	-0.004045233
140	0x3e1339da	0.14377537
141	0xbe6c9b35	-0.23106082
142	0xbd8d52cc	-0.06900558
143	0x3d396c0e	0.045269065
144	0x3e06ba3a	0.13156977
145	0x3be32854	0.0069322977
146	0x3e4c5148	0.19952881
147	0xbe01d7f1	-0.12680031
148	0xbab3ff86	-0.0013732768
149	0xbda47f74	-0.08032122
150	0xbd86f5e5	-0.065898694
151	0x3e565cd6	0.20933852
152	0xbe27b7cf	-0.16378711
153	0x3dc97cc6	0.09838252
154	0x3d1c777c	0.038199887
155	0xbe4e0f60	-0.20123053
156	0xbdb4e2e8	-0.088323414
157	0x3e43f5f5	0.19136794
158	0x3c628a5a	0.013826931
159	0x3e111182	0.14166835
160	0xbe69881b	-0.22805826
161	0xbe019a19	-0.1265644
162	0x3d1f7910	0.038933814
163	0x3e4e1291	0.2012427
164	0x3e2a3b6e	0.16624233
165	0x3d245536	0.040120326
166	0x3d89c0a5	0.06726197
167	0x3dab2974	0.08357516
168	0x3e384971	0.17996766
169	0x3c2bbdbc	0.010482248
170	0xbe36bb89	-0.17844976
171	0x3cab295f	0.02089375
172	0x3dfbe416	0.12299363
173	0x3e85620b	0.26051363
174	0x3e35f99f	0.17771004
175	0xbc21da00	-0.009878635
176	0x3db5c5e8	0.08875638
177	0x3e32233b	0.17396252
178	0x3e8bcfd5	0.27307
179	0x3e11fb24	0.14255959
180	0xbd9e8b8f	-0.077414624
181	0x3e62dcc5	0.2215453
182	0x3e04a7c9	0.1295463
183	0x3e3dadb6	0.18523297
184	0xbe6ccb50	-0.23124433
185	0x3d673a32	0.056451984
186	0xbd33d546	-0.043904565
187	0xbe0268e8	-0.12735331
188	0xbe593af8	-0.21213901
189	0x3d1f9532	0.038960643
190	0x3e4e2a7c	0.20133394
191	0x3e75ccd7	0.24003921
192	0xbe1acbc3	-0.15116791
193	0x3e443ea5	0.19164522
194	0x3e3a9a57	0.18222938
195	0xbe478b88	-0.1948682
196	0xbe59f4fa	-0.21284857
197	0x3e54c978	0.20779979
198	0x3e37442d	0.17897101
199	0x3d8959da	0.06706591
200	0x3d15daa5	0.03658547
201	0x3e263b34	0.16233522
202	0x3e4c26bc	0.19936651
203	0xbe535bee	-0.20640537
204	0xbcca570f	-0.024699716
205	0x3bffe8f3	0.007809752
206	0x3e0b3f47	0.13598357
207	0xbe3647fa	-0.17800894
208	0xbe687f58	-0.22704828
209	0xbc53fb23	-0.012938294
210	0xbe5166e9	-0.20449413
211	0xbe0aae72	-0.13543108
212	0xbe61a0ff	-0.22034071
213	0x3dbcdc0b	0.09221657
214	0xbdab821b	-0.08374425
215	0xbe35051f	-0.17677735
216	0xbc601ab5	-0.013678242
217	0xbe688cfb	-0.2271003
218	0x3d251673	0.040304612
219	0x3d4a2d92	0.049359865
220	0x3d1d5481	0.038410667
221	0xbe06db42	-0.13169578
222	0xbe4d42e0	-0.20045042
223	0x3cd5e0d5	0.026108185
224	0xbe0b4dfc	-0.13603967
225	0x3e475d60	0.19469213
226	0xbe54d29d	-0.20783468
227	0xbdc0937b	-0.0940313
228	0xbbc3b033	-0.0059719323
229	0xbd077aac	-0.033075973
230	0xbe659c42	-0.22422889
231	0x3e599d38	0.2125138
232	0xbd1194f7	-0.035542455
233	0xbdb8bdd4	-0.09020582
234	0xbe6535b9	-0.22383775
235	0xbda6a251	-0.08136428
236	0x3c470346	0.012146777
237	0xbe4fd0cc	-0.20294493
238	0xbe45ca09	-0.19315352
239	0xbe5fb4c8	-0.21846306
240	0xbd23006a	-0.039795317
241	0xbde11733	-0.10990753
242	0xbdd2a9bd	-0.10286281
243	0xbd90d5d1	-0.07072032
244	0xbd500f01	-0.05079556
245	0xbe1a0fcd	-0.1504509
246	0xbe18365a	-0.14864483
247	0x3e590a5d	0.2119536
248	0x3e17b8c2	0.14816573
249	0x3cf2f741	0.029658915
250	0x3db8946d	0.09012685
251	0xbdbe8c80	-0.09304142
252	0xbdd46444	-0.10370687
253	0xbdf9d4df	-0.12198805
254	0xbe225429	-0.15852417
255	0x3d8cfb3f	0.06883859

fc1.bias f4 [128]
0	0x3e7968c6	0.24356374
1	0xbcf349a4	-0.0296982
2	0xbcaff970	-0.021481246
3	0xbe153db5	-0.1457432
4	0xbd2ab3eb	-0.04167549
5	0x3d5084c8	0.05090788
6	0x3d5a994d	0.053368855
7	0xbdf618b6	-0.12016432
8	0x3d626ab6	0.05527755
9	0x3cb4b16e	0.022057261
10	0xbd91440d	-0.07093058
11	0xbdb192f9	-0.08670611
12	0xbb0722fb	-0.0020620215
13	0x3c8dafb9	0.017295705
14	0x3e864ebb	0.26231942
15	0xbda51423	-0.080604814
16	0x3e187682	0.14888957
17	0xbe65def3	-0.2244833
18	0xbe083769	-0.13302387
19	0x3dee3e88	0.11633021
20	0xbe4e75ac	-0.20162076
21	0xbd52bf0d	-0.05145173
22	0xbca854b7	-0.020548208
23	0xbe361d62	-0.17784646
24	0x3d2af01e	0.0417329
25	0x3cf50ed6	0.0299143
26	0xbe24439d	-0.16041417
27	0xbe498cb1	-0.19682576
28	0xbd7b587c	-0.061363682
29	0xbe5143e5	-0.20436056
30	0xbe3b55a8	-0.18294394
31	0x3d92c463	0.07166364
32	0xbdcea347	-0.100897364
33	0xbdda3940	-0.10655451
34	0xbc9aef17	-0.018912835
35	0x3dd6eb08	0.104940474
36	0x3cedc42e	0.02902421
37	0xbe393ccb	-0.18089597
38	0x3de3b7cf	0.11119043
39	0xbd2533bd	-0.040332545
40	0xbcdbd8a3	-0.026836699
41	0x3d15171f	0.036399003
42	0x3e4ae797	0.19814907
43	0xbd547617	-0.05187043
44	0x3e2f8626	0.17141017
45	0x3da5d30a	0.08096893
46	0xbdd40db0	-0.10354173
47	0x3da1f7fe	0.07908629
48	0xbe7de9fb	-0.24796288
49	0x3dc80441	0.09766436
50	0xbdc9364d	-0.0982481
51	0x3e5a4cdd	0.21318384
52	0x3c162a55	0.009165366
53	0xbd02a046	-0.03189113
54	0x3e73d851	0.23812987
55	0xbe767615	-0.24068482
56	0xbe76e8ca	-0.2411224
57	0xbd99f902	-0.075181976
58	0xbe643243	-0.22284798
59	0xbe1c5f46	-0.15270719
60	0x3ddc4a9d	0.10756419
61	0xbd0da0c3	-0.034577142
62	0x3a979b61	0.0011566692
63	0xbe2365a3	-0.1595674
64	0x3e4b8880	0.1987629
65	0x3d89d952	0.06730904
66	0xbe39544a	-0.1809856
67	0xbd800389	-0.06250674
68	0x3d522269	0.051302347
69	0x3e8e54cf	0.2779908
70	0xbd8b5735	-0.06803743
71	0xbdefc9fa	-0.11708446
72	0xbd83275f	-0.06403994
73	0x3e81222e	0.2522139
74	0xbc824c14	-0.015905418
75	0xbe45c8f3	-0.19314937
76	0x3c17f6e6	0.009275174
77	0xbe02428d	-0.127207
78	0x3dce0dba	0.10061212
79	0x3e713a58	0.23557413
80	0xbe57fa49	-0.2109157
81	0x3cdfe700	0.02733183
82	0x3e3cbc90	0.18431306
83	0x3e24200d	0.16027851
84	0x3e18c963	0.14920573
85	0x3b0e3175	0.002169696
86	0xbd3a8c7f	-0.045544144
87	0x3d10fab0	0.035395324
88	0x3e56f1d2	0.20990685
89	0x3dbe635d	0.09296296
90	0xbdf6e652	-0.12055649
91	0xbdd5b040	-0.10434008
92	0xbc57775a	-0.013151014
93	0xbe328188	-0.17432225
94	0xbdfc8755	-0.123305
95	0x3c4cbf36	0.01249676
96	0xbcf6d850	-0.030132443
97	0xbdaf8f9a	-0.08572312
98	0xbda5e3a4	-0.0810006
99	0xbe820e2e	-0.25401443
100	0xbe817fe6	-0.2529289
101	0x3d085f84	0.033294216
102	0xbdcf4e09	-0.10122306
103	0xbe18e7fa	-0.14932242
104	0xbe350f92	-0.17681721
105	0xbe52586f	-0.20541547
106	0xbe309c4b	-0.17247121
107	0x3e6e0ad8	0.23246324
108	0x3dd0e76f	0.102003925
109	0x3d50266b	0.05081789
110	0xbe04457e	-0.12917134
111	0x3d98570f	0.0743848
112	0x3e360067	0.17773591
113	0xbd941131	-0.072298415
114	0x3e553587	0.208212
115	0xbe0f3c3b	-0.1398782
116	0xbe80b8c9	-0.2514098
117	0xbe211f00	-0.15734482
118	0x3dc35ad7	0.09538811
119	0xbd338194	-0.043824747
120	0xbdcdb72a	-0.100447014
121	0xbd69d2b8	-0.057085723
122	0x3e258277	0.1616305
123	0x3db5bfcb	0.08874472
124	0x3e62c34e	0.22144815
125	0xbe290b08	-0.16508114
126	0xbe4759ce	-0.19467852
127	0xbda017a0	-0.07817006

fc2.weight f4 [64, 128]
0	0x3d064f4b	0.032790463
1	0x3d22a3ff	0.03970718
2	0x3cfea405	0.03108407
3	0xbbf1488f	-0.007363386
4	0xbd0dc6ea	-0.034613527
5	0xbdb6b747	-0.08921676
6	0x3c32fbed	0.010924322
7	0x3d25a4cc	0.040440366
8	0x3d596411	0.053073946
9	0x3d426442	0.047458895
10	0xbcdd904c	-0.027046345
11	0x3d02b815	0.031913836
12	0xbd5588b0	-0.05213231
13	0xbd388d04	-0.045056358
14	0xbdb86217	-0.09003084
15	0x3d47c5a7	0.04877248
16	0x3c811c9a	0.015760709
17	0x3cb4b9f4	0.022061326
18	0xba3686d7	-0.0006962842
19	0x3d234ed6	0.039870106
20	0xbcd75b49	-0.026288645
21	0x3d4abdec	0.04949753
22	0xbdb75240	-0.08951235
23	0x3de0103c	0.109405965
24	0x3d94d333	0.072668456
25	0xbbe656c2	-0.0070293853
26	0xbd42cdf5	-0.047559697
27	0x3d98d280	0.07462025
28	0x3dbdeb37	0.09273379
29	0x3cf55d4b	0.029951712
30	0x3ce5911f	0.0280233
31	0xbb926d29	-0.0044685793
32	0xbd6ac4b2	-0.05731649
33	0xbdc31dd2	-0.09527172
34	0x3db53ef0	0.08849895
35	0x3d131bf7	0.03591534
36	0xbc38c828	-0.01127819
37	0x3dba1a95	0.09087101
38	0x3d00fd86	0.03149178
39	0xbd8ed3af	-0.06973969
40	0xbd5e23ac	-0.054233238
41	0x3c6e5349	0.014546224
42	0xbd3d35f6	-0.04619404
43	0xbcef1aa2	-0.029187504
44	0xbdc24adc	-0.094869345
45	0x3d3a4566	0.04547634
46	0x3db5a2f3	0.08868971
47	0x3d747cce	0.059689336
48	0x3d2fb4ed	0.042897154
49	0x3d6d043f	0.057865378
50	0x3d947bb5	0.07250158
51	0xbcf52df6	-0.029929142
52	0xbd4326ba	-0.047644354
53	0x3dbfdd16	0.09368341
54	0xbde046c0	-0.109509945
55	0x3dc88677	0.09791272
56	0x3dc80907	0.09767347
57	0xbdcdd623	-0.10050609
58	0x3d21d7f9	0.03951261
59	0x3cf2d8ac	0.029644333
60	0xbd408ee2	-0.047011264
61	0xbc2635f5	-0.0101447
62	0x3d7cbca5	0.061703343
63	0x3c51ff6f	0.012817248
64	0xbda6cacd	-0.0814415
65	0x3d5e584e	0.054283433
66	0x3ddb6714	0.1071302
67	0xbc8f2924	-0.017475672
68	0xbd9f9231	-0.07791556
69	0xbdcc32a3	-0.09970596
70	0xbc9ddc9d	-0.019270236
71	0xbc8bbab0	-0.017056793
72	0xbb96fc3d	-0.004607706
73	0xbd88df96	-0.06683271
74	0xb929653a	-0.00016154806
75	0x3dd3aed2	0.10336079
76	0x3d41e477	0.04733702
77	0xbcb2afcb	-0.02181234
78	0x3d58b834	0.052910045
79	0xbd38dd19	-0.04513273
80	0xbc3f79ff	-0.011686801
81	0xbd6b315c	-0.05742012
82	0x3d82139a	0.06351395
83	0xbdcb1081	-0.09915257
84	0x3d1a0ac1	0.037607912
85	0x3b5794bc	0.003289505
86	0xbd4be1cd	-0.049775887
87	0xbc816544	-0.015795358
88	0xbd9ea7c5	-0.07746843
89	0xbd3ed872	-0.046593137
90	0x3c058ea7	0.008151687
91	0x3d929648	0.0715757
92	0x3d44d1db	0.048051696
93	0xbdafe112	-0.08587851
94	0x3c99a8af	0.018757192
95	0x3c73bf0d	0.014877093
96	0x3d4d0550	0.050053895
97	0x3d53d53e	0.051717035
98	0x3ba0ef5c	0.0049113464
99	0xbd6244ad	-0.055241276
100	0xbc8045fb	-0.01565837
101	0xbae8d320	-0.0017763115
102	0x3d9bdd6e	0.07610594
103	0x3c4ff4c0	0.01269263
104	0x3da5d05d	0.08096383
105	0xbb63cf6d	-0.0034761087
106	0x3db3ebe5	0.08785228
107	0xbdb1b9af	-0.086779945
108	0xbd1a880b	-0.037727397
109	0xbd5d595a	-0.05404029
110	0x3d812cfc	0.06307408
111	0xbc8af55d	-0.016962701
112	0x3d2c1c6d	0.042019296
113	0xb996d9c4	-0.00028772478
114	0xbdb6ca5a	-0.08925314
115	0x3c60e882	0.013727309
116	0x3cf16ab2	0.029469822
117	0x3de7fae0	0.113271475
118	0xbdc55697	-0.09635656
119	0x3da68f00	0.08132744
120	0xbb18faa7	-0.002334276
121	0xbd89794b	-0.06712588
122	0x3b80a17a	0.0039254995
123	0x3d094d48	0.033520967
124	0xbdaf6140	-0.08563471
125	0x3d30d80a	0.04317478
126	0xbba41fda	-0.00500868
127	0xbdd519ac	-0.10405287
128	0x3ccdeb9e	0.025136765
129	0xbd89e943	-0.06733944
130	0x3ddfeea4	0.10934189
131	0x3dcfdcce	0.10149537
132	0xbd603e91	-0.054747168
133	0xbd5aa85a	-0.05338321
134	0x3cafcc3c	0.021459691
135	0x3d479cff	0.048733708
136	0xbd6ac6ea	-0.057318605
137	0x3d7d7602	0.06188012
138	0xbcffa227	-0.03120525
139	0xbdd5b36d	-0.104346134
140	0x3d3d1a64	0.046167746
141	0x3d5f6bd8	0.054546207
142	0x3c612a82	0.013743045
143	0xbd1d42e2	-0.038393863
144	0x3d2a10c5	0.0415199
145	0xbd55605f	-0.05209386
146	0x3bc8e638	0.00613096
147	0x3d59f6ae	0.053213768
148	0x3d17c837	0.037056174
149	0x3dc8aa40	0.097980976
150	0xbd7ce216	-0.06173905
151	0xbc44c9fd	-0.012011048
152	0xbc5343a0	-0.012894541
153	0xbd2e97a4	-0.042625085
154	0x3d9f7054	0.07785097
155	0xbdd8bf29	-0.10583336
156	0xbdd9a868	-0.10627824
157	0xbd6b725f	-0.05748212
158	0xbe049de2	-0.12950853
159	0xbd6bef08	-0.057601005
160	0xbb1905af	-0.0023349335
161	0x3df27e99	0.11840553
162	0xbd9ae375	-0.07562915
163	0x3d365d41	0.044522528
164	0x3c95f37f	0.018304585
165	0x3a0eaab6	0.0005442308
166	0x3df6a7ae	0.12043701
167	0x3d5dc441	0.05414224
168	0x3d2d61ba	0.042329527
169	0x3d5aff91	0.053466383
170	0x3e041483	0.1289845
171	0xbdadf023	-0.08493068
172	0xbcb62ab2	-0.022237156
173	0x3d4f1657	0.050558414
174	0xbda2f02a	-0.07955964
175	0xbc80c919	-0.01572089
176	0xbd157c90	-0.036495745
177	0x3d3206d8	0.043463558
178	0xbd267343	-0.040637266
179	0xbc94694b	-0.018116614
180	0x3d5ba382	0.05362273
181	0xbddb0f06	-0.10696225
182	0x3cdb3928	0.026760653
183	0xbd437256	-0.04771646
184	0xbd5ab531	-0.053395454
185	0x3d2829a8	0.04105535
186	0xbe0252eb	-0.12726943
187	0xbd875839	-0.06608624
188	0xbc9c6ad7	-0.019093914
189	0xbd5cb4d2	-0.05388338
190	0xbdebd96a	-0.11516078
191	0xbd337663	-0.043814074
192	0x3db36301	0.08759118
193	0x3d8ba50a	0.06818588
194	0x3c30eb1e	0.010798244
195	0xbdac87d6	-0.08424346
196	0x3ce84529	0.02835329
197	0x3dc6cd4c	0.09707126
198	0xbdbf8471	-0.09351433
199	0xbd03978c	-0.03212695
200	0xbd663ae4	-0.056208506
201	0x3d358cd2	0.04432375
202	0xbd888eae	-0.06667839
203	0x3cca783c	0.024715535
204	0x3d9728a9	0.07380802
205	0xbce52f9b	-0.027976802
206	0x3d0d2bec	0.034465715
207	0x3db2eb39	0.087362714
208	0x3cd82626	0.026385378
209	0x3cdcced1	0.026954086
210	0xbd35cbba	-0.044383742
211	0x3d8ce532	0.06879653
212	0xbd320f17	-0.043471422
213	0xbda069ed	-0.07832704
214	0xbdb4dcba	-0.08831163
215	0x3dc657e5	0.09684733
216	0x3db29880	0.08720493
217	0x3da859d5	0.08220259
218	0x3d1f6541	0.038914923
219	0xbd0b9476	-0.03407713
220	0x3bc57c4c	0.00602678
221	0xb857944a	-5.13981e-05
222	0xbd87b4ec	-0.06626305
223	0x3d7f0da0	0.062268853
224	0xbccd752c	-0.025080286
225	0x3cac80c2	0.02105749
226	0x3cbb7f61	0.022887887
227	0xbd88c1b3	-0.0667757
228	0x3c5c33f9	0.013440126
229	0xbcff10bd	-0.031135911
230	0x3d0b6e8a	0.034040965
231	0xbd87cef5	-0.06631271
232	0xbdbcec1a	-0.0922472
233	0xbdafc4e6	-0.08582477
234	0xbdb0472e	-0.086073264
235	0x3d78ad14	0.060711935
236	0x3d9184c6	0.07105403
237	0xbcac4ddf	-0.021033226
238	0xbbb7377b	-0.0055913306
239	0x3d2a6fc9	0.041610513
240	0xbcd98dab	-0.02655681
241	0x3ac3a308	0.0014925906
242	0x3d10fb46	0.035395883
243	0x3d6356dc	0.055502757
244	0x3c9e9077	0.019355996
245	0xbda478eb	-0.08030876
246	0x3d9606cb	0.073255144
247	0x3ce3203a	0.027725328
248	0x3dc83c44	0.0977712
249	0x3d263caa	0.040585198
250	0xbc2f3745	-0.01069433
251	0xbd249bd9	-0.04018769
252	0x3ba82ea1	0.0051325117
253	0x3ddb8f5b	0.10720702
254	0x3bf8737a	0.0075821253
255	0x3dde5a1b	0.1085703

fc2.bias f4 [64]
0	0xbd24d1fd	-0.040239323
1	0xbd327462	-0.043568023
2	0x3cbb356d	0.022852624
3	0xbd5f2510	-0.054478705
4	0x3c9506ed	0.018191779
5	0x3d73b3fd	0.059497822
6	0xbb35ac24	-0.0027721012
7	0xbd9166c4	-0.07099679
8	0x3cec9d83	0.028883701
9	0xbc35df69	-0.011100628
10	0x3d98c54a	0.07459505
11	0x3d8fb882	0.07017614
12	0xbd42cd41	-0.047559027
13	0xbd5c6238	-0.053804606
14	0x3cdb3a2f	0.026761143
15	0x3c9c96aa	0.019114811
16	0x3d8b310b	0.067964636
17	0xbd8089a0	-0.0627625
18	0x3dbf4009	0.093383856
19	0x3d24a3c6	0.04019525
20	0xbd793e0d	-0.06085019
21	0x3cd50fa3	0.026008433
22	0xbde599a4	-0.11210945
23	0x3c4b34d6	0.012402734
24	0xbdb42b2b	-0.08797296
25	0xbca699d8	-0.02033703
26	0xbd77593f	-0.060387846
27	0x3d5de65a	0.05417476
28	0xbd692519	-0.056920145
29	0x3d8023c1	0.062568195
30	0x3d875220	0.06607461
31	0xbdb2e068	-0.08734208
32	0x3bbdc8ce	0.00579176
33	0xbdaa1399	-0.08304519
34	0xbc69d9e3	-0.01427314
35	0x3a11b81b	0.0005558745
36	0x3bf1e679	0.007382211
37	0xbda4a808	-0.08039862
38	0x3d78aa76	0.06070944
39	0xbd0f7ff6	-0.035034142
40	0x3c341e45	0.010993545
41	0x3d4aca99	0.04950962
42	0xbdfe63cd	-0.12421379
43	0xbd661bcb	-0.05617885
44	0xbbc2ae03	-0.005941154
45	0xbd95d67b	-0.073162995
46	0x3d439671	0.047750894
47	0xbd9ef8d4	-0.07762304
48	0xbc0f6baa	-0.008753696
49	0x3d825430	0.06363714
50	0x3defddf6	0.117122576
51	0x3d2346a3	0.039862286
52	0xbc4cf767	-0.012510157
53	0x3c6ed016	0.014575979
54	0xbd516261	-0.051119212
55	0xbd055776	-0.032554112
56	0x3d51cb55	0.051219303
57	0x3d32a903	0.043618213
58	0xbc157cb1	-0.009123967
59	0xbc07f6d4	-0.0082985945
60	0x3ce2ca9d	0.027684504
61	0x3e0188be	0.12649819
62	0xbcff9dd9	-0.031203197
63	0x3c0e26da	0.008676255

fc3.weight f4 [32, 64]
0	0x3b052c95	0.0020320762
1	0x3d8afcf8	0.06786531
2	0x3cf119df	0.029431282
3	0x3d278a0a	0.04090313
4	0xbe03746a	-0.12837377
5	0xbd6a7786	-0.057242893
6	0xbce85914	-0.028362788
7	0x3ddfde1c	0.10931036
8	0x3d279a54	0.040918663
9	0xbdd36ed3	-0.103238724
10	0xbd658bc3	-0.05604149
11	0xbc99f8ba	-0.01879536
12	0xbcd2dff1	-0.02574155
13	0xbbad6a6a	-0.0052922266
14	0x3e039dd1	0.12853171
15	0x3dfa3062	0.122162595
16	0xbd9d1dc6	-0.076716945
17	0x3d2069ba	0.03916333
18	0x3e2165a7	0.15761434
19	0x3c803ee9	0.015654998
20	0xbddea172	-0.10870637
21	0x3dad6fe1	0.08468605
22	0x3d85637d	0.065131165
23	0x3d71a25c	0.05899273
24	0xbda3e65b	-0.08002921
25	0x3b12ed77	0.0022419372
26	0x3d92eb53	0.07173791
27	0xbd571ea8	-0.05251947
28	0x3e00f856	0.12594733
29	0xbd707768	-0.058707625
30	0x3d6629f8	0.05619237
31	0x3dbc7748	0.092024386
32	0x3da7ac80	0.08187199
33	0x3da45078	0.08023161
34	0x3cb32511	0.02186826
35	0x3e050503	0.12990193
36	0x3ce4c240	0.027924657
37	0xbdde841b	-0.10865041
38	0x3ca0975a	0.01960342
39	0x3d1b6441	0.037937406
40	0xbe0ae24e	-0.13562891
41	0xbdc91455	-0.09818331
42	0x3d5d56fa	0.054038025
43	0xbdfecb73	-0.124411486
44	0x3c9533c4	0.01821316
45	0x3d00b504	0.03142263
46	0xbd93cefd	-0.07217214
47	0x3d8579a3	0.06517341
48	0x3deba716	0.115064785
49	0xbd41b5c7	-0.047292497
50	0x3d5cb013	0.053878855
51	0x3ddb507e	0.10708712
52	0xbd7f61c4	-0.062349096
53	0x3db13a7f	0.08653735
54	0xbca7475a	-0.020419765
55	0xbb1d041c	-0.0023958748
56	0xbe2e1534	-0.17000276
57	0xbc3dfe55	-0.011596282
58	0xbdbe391c	-0.092882365
59	0xbc576bde	-0.013148276
60	0x3cafd993	0.021466052
61	0xbdba8e7f	-0.0910921
62	0x3d336013	0.043792795
63	0x3b8f871b	0.0043801195
64	0x3d4956cd	0.049155045
65	0xbd84c634	-0.06483117
66	0xbd6eba5e	-0.058283202
67	0x3de2b1f4	0.11069098
68	0xbdc1a1e3	-0.094547056
69	0x3d180b59	0.037120197
70	0xbc30389c	-0.010755684
71	0xbd78ec02	-0.06077195
72	0xbdfb5782	-0.1227255
73	0x3d413312	0.047167845
74	0x3d72ab0d	0.059245158
75	0xbae02f3b	-0.001710392
76	0x3df8c149	0.12146241
77	0xbd8bdb71	-0.068289645
78	0xbdd82ac6	-0.105550334
79	0xbd84d718	-0.064863384
80	0x3dc46bbb	0.095908605
81	0x3d00f140	0.031480074
82	0x3da8ae5f	0.08236384
83	0xbd9ef423	-0.07761409
84	0x3cee7895	0.029110232
85	0xbdfbcd65	-0.12295035
86	0x3cd94ede	0.026526865
87	0xbd21d0f4	-0.039505914
88	0x3de0b2a3	0.10971572
89	0x3d00d870	0.03145641
90	0xbd87726c	-0.06613621
91	0x3da1e139	0.07904286
92	0xbdd63ee3	-0.104612134
93	0x3c263a08	0.010145672
94	0x3d5c2559	0.053746555
95	0xbc859894	-0.016308106
96	0xbb6cf7a3	-0.0036158345
97	0xbb8110a3	-0.003938751
98	0x3ca0d1c7	0.01963128
99	0x3c1ced85	0.009578113
100	0xbcdc9bb7	-0.02692972
101	0xbc937d83	-0.018004185
102	0x3e05d277	0.13068567
103	0xbdb83406	-0.08994298
104	0xbdb4a8e7	-0.08821278
105	0x3deabfbd	0.114623524
106	0x3da94786	0.08265595
107	0x3c8b728e	0.017022397
108	0x3cc48a01	0.023991587
109	0x3d16afb3	0.036788654
110	0xbdaa9315	-0.08328835
111	0x3dc7df10	0.09759343
112	0x3cd81cc7	0.02638091
113	0x3d1245ee	0.03571122
114	0xbd90ad95	-0.07064358
115	0xbe0fd319	-0.14045371
116	0xbc1aa624	-0.009439025
117	0xbc3a7bc1	-0.011382044
118	0x3df328c4	0.1187301
119	0xbd360fa6	-0.044448517
120	0xbe0c799a	-0.13718262
121	0xbcae14ff	-0.021250246
122	0x3c1dad1e	0.009623794
123	0xbda2f336	-0.07956545
124	0xbca5b0be	-0.020225879
125	0x3dbb99a3	0.09160163
126	0x3d085988	0.03328851
127	0x3b67cc26	0.0035369485
128	0xbd859a7f	-0.065236084
129	0x3dd96bef	0.1061629
130	0xbca5e9f8	-0.020253167
131	0xbdfa8ea1	-0.122342356
132	0xbc9105e0	-0.017702997
133	0x3e2a0856	0.16604742
134	0x3d6d70f3	0.057969045
135	0x3d8aa5d8	0.067699134
136	0x3d957d72	0.072993174
137	0xbc27ed53	-0.010249454
138	0xbd727bb7	-0.059200015
139	0xbd5deece	-0.05418282
140	0x3c37298f	0.011179342
141	0xbc85d038	-0.016334638
142	0xbd142fde	-0.036178462
143	0xbd44bae4	-0.048029795
144	0xbddaaed7	-0.10677879
145	0x3d8ef718	0.06980723
146	0x3e27e383	0.16395383
147	0xbe110550	-0.14162183
148	0xbe34034c	-0.17579383
149	0xbca08143	-0.019592887
150	0xbdeaff19	-0.11474437
151	0x3da6c1d2	0.08142437
152	0xbd1b5841	-0.037925962
153	0xbde18d8b	-0.11013325
154	0xbd86a624	-0.065746576
155	0x3c6153ce	0.013752891
156	0x3d8678d9	0.065660186
157	0xbd10163d	-0.035177458
158	0xbd9a3caf	-0.07531106
159	0xbda06cef	-0.078332774
160	0x3c41316a	0.011791566
161	0xbdb04b2f	-0.0860809
162	0xbdf0f2cf	-0.11765062
163	0x3e0cef1c	0.13763088
164	0xbd89d545	-0.06730131
165	0xbcecf36f	-0.028924672
166	0x3c87ff0a	0.016601104
167	0xbe2f5fe1	-0.17126419
168	0xbe31b4fe	-0.173542
169	0x3d8b84d1	0.06812442
170	0xbdbe866f	-0.09302985
171	0x3d2b1be8	0.04177466
172	0xbd56e448	-0.0524638
173	0xbdad2cfc	-0.08455846
174	0xbcb2fc91	-0.021848949
175	0xbe15db10	-0.14634347
176	0xbcf6b852	-0.030117188
177	0x3dab522b	0.08365282
178	0x3da43fc2	0.08019973
179	0xbcc7d8ce	-0.024395373
180	0xbe25a64f	-0.16176723
181	0xbdab0497	-0.08350485
182	0xbd1f3b70	-0.038875043
183	0x3dae38fa	0.08506961
184	0x3d2d6f70	0.042342603
185	0x3d464933	0.048409652
186	0xba7129db	-0.00091996574
187	0x3d5233da	0.05131898
188	0x3d672328	0.056430012
189	0xbd889597	-0.06669157
190	0xbdcfb169	-0.1014126
191	0xbd796047	-0.060882833
192	0xbd768063	-0.060181033
193	0xbcea4552	-0.028597508
194	0x3ccca7aa	0.024982292
195	0xbdd530a5	-0.10409669
196	0x3da0ec31	0.0785755
197	0xbd0a6f8e	-0.033797793
198	0x3dfd6e23	0.123745225
199	0xbdbbd55f	-0.09171557
200	0x3d5a8d71	0.053357545
201	0xbd4582da	-0.048220493
202	0x3d809963	0.06279256
203	0xbd83ee2f	-0.06441914
204	0x3b741db1	0.0037249143
205	0xbd228c41	-0.039684538
206	0xbd42aab3	-0.047526073
207	0x3cfa0516	0.030520003
208	0x3daa037d	0.083014466
209	0x3da17858	0.07884282
210	0xbd177751	-0.036979023
211	0xbd4803a1	-0.048831586
212	0x3d1a9fc9	0.03775004
213	0x3b6963a9	0.003561238
214	0x3c70570e	0.014669193
215	0xbdc24283	-0.09485342
216	0x3e0fa608	0.1402818
217	0x3e0a1b47	0.13486968
218	0xbd95e433	-0.07318916
219	0x3da0b9f6	0.07847969
220	0xbcd241f6	-0.025666218
221	0xbda9e675	-0.08295909
222	0xbd94ff39	-0.07275242
223	0x3dd28418	0.10279101
224	0xbd12fb05	-0.035883922
225	0x3e0d1796	0.13778529
226	0xbd427ee6	-0.0474843
227	0xbdce9dc2	-0.10088684
228	0xbe120a53	-0.14261751
229	0x3c698c18	0.014254592
230	0xbd5318e7	-0.05153742
231	0x3df8d908	0.121507704
232	0x3b27af26	0.0025586574
233	0xbb6fb45d	-0.003657601
234	0xbda5e3e7	-0.081001095
235	0xbe02fb40	-0.12791157
236	0xbde847f2	-0.113418475
237	0x3ce8c40a	0.028413791
238	0xbdd58596	-0.1042587
239	0xbd86c3d4	-0.0658032
240	0xbdb844eb	-0.0899752
241	0xbdca3110	-0.09872639
242	0xbd6522c1	-0.055941347
243	0x3c4d4c3b	0.012530382
244	0xbca0c3df	-0.019624649
245	0x3dc3b4e5	0.09555987
246	0xbd2c4182	-0.04205466
247	0xbd728a06	-0.05921366
248	0xbdcd68ed	-0.10029779
249	0x3a9df8c3	0.0012052286
250	0x3d743c1f	0.05962765
251	0xbdd8769a	-0.105694965
252	0x3c9e729e	0.019341763
253	0xbda915b1	-0.082560904
254	0xbc9a8a87	-0.018864883
255	0x3dbfbeaa	0.09362538

fc3.bias f4 [32]
0	0x3d9481f8	0.07251352
1	0x3d4a766f	0.049429353
2	0xbd92afec	-0.07162461
3	0xbda468ef	-0.08027827
4	0xbc98d657	-0.018656893
5	0xbba01fc6	-0.0048866
6	0x3dc345d5	0.09534804
7	0x3d53a335	0.05166932
8	0x3d5b8795	0.053596098
9	0x3ce0a762	0.027423564
10	0xbd0a28ca	-0.033730306
11	0x3d202f28	0.03910747
12	0xbd9dc323	-0.07703235
13	0xbe01d198	-0.1267761
14	0x3be9c226	0.00713374
15	0x3ad4761f	0.0016209519
16	0xbd41a201	-0.04727364
17	0x3d7543a7	0.05987897
18	0x3d887bf6	0.06664269
19	0x3dd23f3a	0.10265966
20	0xbdbe0203	-0.092777275
21	0x3b58bc38	0.0033071171
22	0xbcb89a97	-0.022534652
23	0xbda7c754	-0.08192316
24	0xbdc8a44e	-0.09796964
25	0x3e020563	0.12697367
26	0x3daaab12	0.0833341
27	0x3de4cb96	0.111716434
28	0xbdd853ee	-0.10562883
29	0xbcf85767	-0.030315114
30	0xbd9ba6fa	-0.076002076
31	0xbc3688d5	-0.011141022

fc4.weight f4 [5, 32]
0	0xbe456254	-0.1927579
1	0xbdaf08dc	-0.08546612
2	0x3d95ef75	0.073210634
3	0xbd296e4f	-0.041364964
4	0xbe039614	-0.12850219
5	0xbd10eac0	-0.035380125
6	0xbe078354	-0.13233691
7	0xbe025d1b	-0.1273083
8	0xbe21b4d9	-0.15791644
9	0xbe4478cb	-0.19186704
10	0xbe6417bb	-0.22274677
11	0x3e70986b	0.23495643
12	0x3e05bd14	0.13060409
13	0x3d76af9d	0.06022607
14	0xbe080dbb	-0.13286488
15	0xbe49ee12	-0.19719723
16	0xbdc2449b	-0.09485742
17	0x3e4a1172	0.19733217
18	0xbe4a2e63	-0.19744258
19	0x3dfb360f	0.1226617
20	0xbd395375	-0.045245606
21	0x3e3b73ca	0.18305889
22	0xbe7028a9	-0.2345301
23	0x3d7e55e8	0.062093645
24	0xbd34d523	-0.044148576
25	0xbdd00fb1	-0.10159243
26	0x3d7d9ce2	0.061917193
27	0xbe3c795e	-0.18405673
28	0xbcfb3942	-0.030666951
29	0xbd3d40e4	-0.046204463
30	0x3e15a524	0.14613777
31	0xbd92a667	-0.07160645
32	0xbe004016	-0.12524447
33	0xbe128840	-0.14309788
34	0xbe178df2	-0.14800242
35	0xbc9c48f2	-0.019077752
36	0xbd9abeda	-0.07555933
37	0x3be0490c	0.0068446454
38	0xbd15d97c	-0.036584362
39	0xbda58197	-0.08081358
40	0x3d0343dd	0.03204714
41	0xbdde5378	-0.10855764
42	0xbe09297e	-0.13394734
43	0x3cdac886	0.026706945
44	0x3d82cf04	0.06387141
45	0xbd38599d	-0.045007337
46	0xbcf99003	-0.030464178
47	0x3d825960	0.06364703
48	0x3e04a5d1	0.12953879
49	0x3d1c90bb	0.038223963
50	0xbe3601e6	-0.17774162
51	0x3e16ea28	0.14737761
52	0xbcc1bc04	-0.023649223
53	0x3dc3344a	0.09531458
54	0x3dd31a84	0.10307792
55	0xbcc7e5ee	-0.024401631
56	0x3e288f71	0.16460969
57	0xbd99cb21	-0.07509447
58	0xbcb3645a	-0.021898437
59	0xbd4cf6d3	-0.050040077
60	0x3d192955	0.037392933
61	0xbdbfcbdd	-0.09365056
62	0x3d4ad42e	0.049518757
63	0xbe4ce29f	-0.20008324
64	0xbd8e33d7	-0.069434814
65	0xbde6dd3c	-0.11272666
66	0x3e8857bb	0.26629433
67	0xbe038ad0	-0.12845922
68	0x3dfd0d22	0.123560205
69	0xbd08cf96	-0.033401094
70	0xbd733280	-0.059374332
71	0xbe145ca9	-0.14488472
72	0x3e2ef143	0.17084222
73	0xbdbba7a5	-0.09162835
74	0x3d5faead	0.054609943
75	0xbe57723f	-0.21039675
76	0x3e052eb5	0.13006099
77	0x3d7a2e31	0.061079208
78	0xbd48c47d	-0.04901551
79	0xbe2c6b00	-0.16837692
80	0x3e25ad3e	0.16179368
81	0xbc2d26b4	-0.01056831
82	0x3e0b41f4	0.13599378
83	0x3e19189f	0.14950798
84	0xbdc0135b	-0.09378692
85	0xbe3c8cfc	-0.18413156
86	0xbd3024a2	-0.043003686
87	0xbc884d4d	-0.016638422
88	0xbd357e10	-0.044309676
89	0x3e024d61	0.1272483
90	0xbe21fbf9	-0.15818776
91	0xbda62518	-0.08112544
92	0xbe510223	-0.20410971
93	0xbe00c07f	-0.12573431
94	0xbd3838fa	-0.044976212
95	0x3dfa4794	0.12220684
96	0x3e28188a	0.16415611
97	0xbbbbaeda	-0.005727631
98	0x3dfa0f3e	0.122099385
99	0xbdca0446	-0.09864096
100	0x3da4a78f	0.08039772
101	0xbdda447d	-0.10657594
102	0x3e2a4a54	0.16629916
103	0xbdf349fd	-0.118793465
104	0xbb9f96c1	-0.004870266
105	0xbd1216c2	-0.035666235
106	0x3da2ce4a	0.07949503
107	0xbc28c933	-0.010301876
108	0x3d2f57f0	0.042808473
109	0x3e15c706	0.14626703
110	0xbde27d62	-0.11059071
111	0xbe12d0ea	-0.14337507
112	0xbe0dd6be	-0.13851449
113	0xbe2990b8	-0.16559112
114	0x3d7899f6	0.060693704
115	0xbdb94668	-0.09046632
116	0xbc687f88	-0.014190562
117	0x3d9af819	0.07566852
118	0x3da20f59	0.079130836
119	0xbe5ad6cc	-0.21371001
120	0xbd6e244f	-0.058140095
121	0xbc120712	-0.0089128185
122	0x3e31fae4	0.17380863
123	0x3e1f5d18	0.15562856
124	0x3d09cdc2	0.03364349
125	0x3e42325c	0.18964523
126	0xbe377b44	-0.17918116
127	0xbe3d3d93	-0.1848052
128	0x3d357bf9	0.044307683
129	0xbe30feca	-0.17284694
130	0xbd246ba5	-0.04014172
131	0xbdb73ec5	-0.08947519
132	0x3e26062c	0.16213292
133	0x3e24996c	0.16074151
134	0xbe4753e1	-0.19465591
135	0x3e3eaf49	0.18621553
136	0x3e39b5f0	0.1813581
137	0x3dadf5a8	0.08494121
138	0xbdd536dd	-0.10410855
139	0xbe086d46	-0.13322935
140	0x3d32ba4e	0.043634705
141	0xbda09064	-0.0784004
142	0x3dc561e9	0.096378155
143	0xbd5d50b9	-0.05403206
144	0xbd354314	-0.044253424
145	0x3ddda4e8	0.10822469
146	0xbd255d10	-0.040371954
147	0xbe00cabc	-0.12577337
148	0x3d3d8f67	0.046279337
149	0xbe1462b7	-0.14490782
150	0x3e08d933	0.13364105
151	0x3d085010	0.03327948
152	0x3e157ca7	0.14598332
153	0x3db1f3ad	0.086890556
154	0x3df68416	0.12036912
155	0x3e2d0376	0.16895851
156	0x3debf90b	0.115221106
157	0x3d6608c5	0.056160707
158	0xbd191ff7	-0.037384
159	0x3d5bfbf9	0.053707097

fc4.bias f4 [5]
0	0x3e064f3e	0.13116166
1	0xbd174e73	-0.03694005
2	0x3ca0a0a3	0.019607848
3	0xbd14e11c	-0.036347494
4	0x3e2830a7	0.1642481
